result/model2/trained_model2.pth (torch, 525207 bytes, 6 tensors)

fc1.weight f4 [64, 2010]
00000000: c8e3 0c3d f7ce 79bc eecf 59ba 0dc6 faba
00000010: a793 39bd 271e 18bd 9422 043d 9040 50bc
00000020: c642 46bd 8925 8239 d44c a33b c4b2 3d3d
00000030: 37de b2bc 37ae 16bb f768 7e3c bfa4 693c
00000040: c6c4 18bd b7f8 163b 32d6 ce39 c72f 003d
00000050: fd81 173c 2085 273b bd35 193d 8a63 e4bc
00000060: 3a4d b33c f315 4e3c 899d edbb 99f7 0e3c
00000070: 6a3c 8ebb a99b 8c3d 35a2 c43b e26d 823d
00000080: bf3d 9e3c c326 593d 45e3 07bc ff71 15bc
00000090: 1c51 b1ba 28da 013d 4f65 0f3d e592 d9bb
000000a0: e401 b0b9 48ab 783d 1bba 353c cc5e cebc
000000b0: 182d 093c cf3f f23c a040 bebb 0287 5b3c
000000c0: dd75 8bbd 787f 87bd 19a8 613c c9b3 f33b
000000d0: 4aa0 173d f46f 463d d9ba b6ba aeef e03c
000000e0: 52e1 d13c 9815 f33c f290 0d3d ffa5 9e3c
000000f0: cde1 afbb b983 8d3b 30da 193d d6ea 8b3d
00000100: 147a d33a 204d 293c 1312 5a3c 4698 f2bb
00000110: b83f 1f3c 0807 e3bc 5e94 823b 823d 033c
00000120: b563 d2bc 22f6 113c 7de3 313d fdb0 63bc
00000130: 6585 c6bc c06c 113d a1b7 cc3c cba4 98bc
00000140: 9edb 523d 915a d73c 0180 35bc da7c 55bd
00000150: e3a7 5d3c 1836 153d 8c10 44bd 596f feb8
00000160: b461 043d 126f 7e3a 01df 823c 20d6 32bc
00000170: 3332 6abc c453 9fbc 6874 b33c d00a cf3b
00000180: c8bf 22bd 559a 603c 8fad ffbc eb6d c93d
00000190: bffb 47bc c76e 73bd 5dae b83c 2099 b43b
000001a0: f3e7 9aba f229 c13c f5c4 d13c ba0a 06bd
000001b0: 8ad4 773d 6f28 29bc f299 993d 51cb 76bb
000001c0: ddb0 fe3c e7ec 923c 85a4 a53c ae6b 1c3b
000001d0: 63b8 adbc 9068 f4bc a477 2f3c 9475 77bc
000001e0: 53cb 1a3c 0b6a 8e3d c768 39bd 084b dd3c
000001f0: 8ab1 553d 7e1f 4b3c 7e1e dc3b ed94 d23a
00000200: 294a f93c a4ce 333c 198b 683d 820a 7bbc
00000210: d6e4 723d 9902 c03c ee8c a7bc 2a63 883d
00000220: 0f31 42bc f32d c03c f177 c53c 42fa a83d
00000230: 51a3 6c3d f4e5 203b 03fb fbbb 5d97 57bc
00000240: 6c45 033d a50e f9bb e707 803c a67a 0937
00000250: b62d 42bc b564 f73c 3134 3dbd ee95 463b
00000260: 2f1a 35bc 8538 71bc f27c 373d 401c 58bc
00000270: a153 263c 2715 38bc 4b44 2a3d 3a33 d73c
00000280: 37fa 7fbc aa42 fb3c 3d82 53bc cdb5 b23a
00000290: ff2e 163b 9cf7 10bd 4e33 f33c 23d1 ebbb
000002a0: f052 42bc 5a7f 983d b2bb 6d3d b8f3 fe3c
000002b0: e390 4e3c 5e14 8a3d 67b1 6b3c c399 8f3d
000002c0: 046a 993d 00f0 953d a5d6 06bd aa01 8a3c
000002d0: b851 11bc 263b 0a3b 2c3d 193c f286 fbbc
000002e0: 5907 d43c 45fe 7e3c cd11 0a3c 8de5 593c
000002f0: 4d87 653d 5135 b23c bb9c 153d 5988 813d
00000300: ab66 833b afd5 3d3e 31fb 983d 71dc 893d
00000310: e2ff 9c3d c7a8 713d aced bf3c 4fc2 ac3c
00000320: 09ea 063d c5a4 573d 0aff d13b f786 8ebc
00000330: cf6c 38bc ec06 c73b 3cb4 7a3d 4086 093d
00000340: be67 4dbc 4984 863d f0ed f3bc 7f48 15bd
00000350: 5e36 74bb 9b79 5c3d f378 49bc 0a3f 30bd
00000360: 8b0e 5cbb 27b3 7d3d 8856 033c a697 2eb9
00000370: 77ca 6d3d 34b2 513d b3f7 e2ba 4727 063d
00000380: b21a 823d 864a 7e3d 1c25 bb3d 90ec dd3c
00000390: 9269 11bd 11bd e5bb ef5a e43b 85c4 7cbb
000003a0: 1a6b 26bd c595 953d 8e54 8cbc 704f ed3b
000003b0: 5f22 883c e26c a83d 113b c03c a34b 0f3c
000003c0: 0273 a4bc 34d6 aa3d a717 0bbd 2c12 5bbd
000003d0: 5261 193d aa02 0a3d b414 17bd 4dab 893d
000003e0: 2ea2 2ebc 7d19 c73c 25f4 893c 4f42 d8bb
000003f0: 3423 7339 5e48 94bc 45b2 013d 6444 923d
0.034396917 -0.015247098 -0.0008308877 -0.001913251 -0.045306828 -0.03713813 0.03225954 -0.012710705
-0.048403524 0.00024823498 0.004983524 0.046313062 -0.021834476 -0.0022992024 0.015527955 0.01426047
-0.037297033 0.002303643 0.0003945097 0.031295564 0.0092473 0.0025561526 0.037404764 -0.027879495
0.02188741 0.012578475 -0.0072514457 0.008726024 -0.004340698 0.06865627 0.006000782 0.06368615
0.019316552 0.05301548 -0.008293931 -0.009121417 -0.0013528201 0.03170219 0.035008725 -0.0066398256
-0.00033570745 0.06071022 0.011091734 -0.025191687 0.008372568 0.029571442 -0.0058060437 0.013398888
-0.0680959 -0.066161096 0.013772988 0.0074372035 0.037018098 0.04844661 -0.0013941183 0.027458038
0.025620136 0.029673383 0.03456206 0.019366262 -0.0053674937 0.004318681 0.037561595 0.06831901
0.0016134405 0.010333329 0.013309973 -0.0074034063 0.009719782 -0.027713314 0.003984972 0.00801027
-0.02568231 0.00890878 0.04342984 -0.013897178 -0.02423353 0.035504103 0.024989905 -0.018633267
0.051478975 0.026288303 -0.011077882 -0.05212102 0.013528797 0.03642854 -0.047867343 -0.00012132404
0.03231974 0.0009705882 0.015975477 -0.010915309 -0.014294195 -0.019449122 0.021906093 0.0063184276
-0.039733678 0.013708671 -0.031210689 0.09835418 -0.012206017 -0.059431817 0.02254408 0.005511418
-0.0011818394 0.023579571 0.025606612 -0.032725073 0.060505427 -0.0103245815 0.07500066 -0.0037657807
0.031090194 0.01793523 0.02022005 0.0023867893 -0.021206087 -0.029835016 0.010709677 -0.015103716
0.00944789 0.0695382 -0.04526594 0.027013317 0.052171268 0.012397645 0.006717502 0.0016066112
0.03043087 0.01097456 0.05677328 -0.0153223295 0.059300266 0.023438739 -0.020452943 0.06659539
-0.011852517 0.02345941 0.024105044 0.08250858 0.05777294 0.0024551125 -0.007689835 -0.013158646
0.032048628 -0.0076006227 0.015628768 8.194393e-06 -0.011851719 0.030199388 -0.04619235 0.0030301767
-0.011053606 -0.014722948 0.04479689 -0.013190329 0.010151775 -0.011235512 0.041569036 0.026269544
-0.015623621 0.030671436 -0.012909469 0.0013634503 0.0022916195 -0.03539239 0.02968755 -0.007196562
-0.011860594 0.074461654 0.05804033 0.031122074 0.012607786 0.06742166 0.014385558 0.070117496
0.07490924 0.07321167 -0.032919545 0.016846497 -0.008869581 0.0021092384 0.009352963 -0.030703995
0.02588241 0.015563552 0.008427096 0.013299358 0.056037236 0.021753939 0.036526423 0.063248344
0.0040100417 0.18538545 0.07469786 0.06731499 0.07665993 0.05899885 0.02342876 0.021088747
0.032938037 0.05264737 0.006408577 -0.01739834 -0.011256411 0.006073823 0.06120704 0.033575296
-0.012536941 0.065682 -0.029776543 -0.03644609 -0.003726385 0.05382691 -0.012296903 -0.04302887
-0.0033578004 0.06193843 0.008016236 -0.00016650427 0.058054414 0.05119534 -0.0017316252 0.0327523
0.06352748 0.06208279 0.091379374 0.02709034 -0.03550107 -0.007011064 0.006968848 -0.0038569283
-0.040629484 0.07303957 -0.017130163 0.0072421357 0.016617952 0.08223893 0.023465665 0.008746061
-0.020074371 0.08341637 -0.033958104 -0.053484127 0.037446328 0.033693947 -0.03688498 0.06722126
-0.010658784 0.024304146 0.01684005 -0.0065997015 0.000231874 -0.018100914 0.03166415 0.07141951

fc1.bias f4 [64]
00000000: dbaa 963c e707 f73c d9b1 c53d f16b f03c
00000010: 4bc1 e33c f2fb b93c 171a b83d 5663 ea3c
00000020: 86e4 ab3c f262 c73c 77b1 cb3d 115d bb3d
00000030: ac95 f83c dcef 653c d60d b63d 1c2a d33d
00000040: c259 f53c d226 f03c 599f c53c 80ea d83c
00000050: 0884 d33c 1bdc c13c c5e8 b53d ba5a fb3c
00000060: d878 f33c 8abf d93c 09b3 b53c b8b5 e53c
00000070: 16f3 0c3d 4a42 af3c cfd4 913c b6d0 c73d
00000080: dd19 c53c 5aaf 983c 06af c73d ce9e eb3c
00000090: 8e40 de3c 836a b33d 9682 f23c d4d2 a73c
000000a0: c5ea ad3c 2e26 0b3d f8e6 b63d 2d43 fb3c
000000b0: 7453 943c eacb dc3c 85bd cc3d e8ee a23c
000000c0: 4a12 c03c 2b68 fe3c 71b7 ed3c 7f56 c33d
000000d0: dad8 c23d 579d f63c 8022 b03c 8653 ac3c
000000e0: 8ab2 de3c bab7 0f3d 865f fe3c 88df fd3c
000000f0: 0820 073d 3864 c73d f075 cc3d a81b d13c
0.018392017 0.030155135 0.096530624 0.029348345 0.02780213 0.022703145 0.08989351 0.02861182
0.020982992 0.024339173 0.09945958 0.091486104 0.030344807 0.014034238 0.08889358 0.10310766
0.029950026 0.029315386 0.024123834 0.026479006 0.025819793 0.023664525 0.08882288 0.03068291
0.029720709 0.02658059 0.022180097 0.028040752 0.034411512 0.021393914 0.01780167 0.09756605
0.024060184 0.018638302 0.0975018 0.028762247 0.027130391 0.0876055 0.029603284 0.020486273
0.02123011 0.033971958 0.089307725 0.03067168 0.0181062 0.026952703 0.099970855 0.01988931
0.02344622 0.03105553 0.029018136 0.09537982 0.095140174 0.030104322 0.021500826 0.02103592
0.027184743 0.035087325 0.031051408 0.030990377 0.03298953 0.09735912 0.09983432 0.025525883

fc2.weight f4 [32, 64]
00000000: 57d0 88be c06b b0bd 266b 923e fbab abbd
00000010: 5e4b 74bd a49c cdbd c597 093e 8ec0 7cbe
00000020: 735b fcbd ec52 29be 6ca5 3b3e 9fe3 fb3d
00000030: 6e6e 52be 3961 44be bef3 723e 0318 8c3e
00000040: d8a8 9bbd 61be ddbd ba84 0cbd 484e 86bc
00000050: 587d 0bbe d281 59be beb4 ec3d 8166 7cbd
00000060: dac3 a6bd 349e 69be 2fdd 5cbe 521e aebd
00000070: d71b 20be d671 6bbd 1d23 2dbe 8924 953e
00000080: cbb0 4cbe b7bd 29be 2e7c 523e 462e f6bc
00000090: b37a debd 1c84 973e 4bde 4bbe 483c bdbd
000000a0: 3a9b 77be 91bc 9dbd 35aa 953e e711 0cbe
000000b0: 5976 8ebe 947e 82be 0ff0 8d3d 4139 18be
000000c0: b1e7 37be 247e 2cbe ad5f c9bd d773 c23d
000000d0: 4aca 2b3e 86b0 5abe 8743 02bd 3ab8 41be
000000e0: c6b8 c4bc 41ab 59be 9d57 38be 9e60 9abe
000000f0: 546b 5bbe 11d0 863d 4e93 813e 4f6a 70bd
00000100: 8ac8 2dbe 4080 84be dc53 013e 987d 87be
00000110: 604b dfbd 3e38 7bbe 5b53 513e 8c43 4abd
00000120: f4dc 58be d6c0 79be 2ace ab3e dc68 4d3e
00000130: bfae 45be d88a a1be b430 663e 2f51 ab3e
00000140: 96d7 14be 992c 7cbe 175f 3ebe 0a32 89bd
00000150: 7363 89be 45cf ddbd c2e3 8a3e 5efc 81be
00000160: c4ef 02be 4176 4ebe 5210 3cbe 9b66 fabc
00000170: 8604 17be dd3d 69be fa47 63bd 1a77 a83e
00000180: 3b30 b1bd 16b2 74bd 7ccb 843e b01d bdbd
00000190: 85be 95be b77f b03e 4293 95bd be82 c1bd
000001a0: 5afe 75be 6b57 bdbc d688 903e 8dc6 e4bc
000001b0: a3f8 86be 3554 61be 1f9c 523e 720f 0fbe
000001c0: c5ec 86bd b2e4 49be 6aa0 46be aec8 8d3e
000001d0: 5cbc 7d3e 11c0 7dbe 53fe 70be a8cc dabd
000001e0: e5a3 6abe 0c0e 3dbe 3873 24be 7651 82be
000001f0: fa50 a8bd 8980 813e 8823 9b3e de91 81be
00000200: f3fb 30be 28bc 3dbe 44d5 f73d 7326 80bd
00000210: 2a6e 9cbd e0e2 6bbe f492 563e b47f 8ebd
00000220: 1fc5 ddbd 7fb6 80be af4f 563e b735 f33d
00000230: a8a2 66be aa5c 19be db11 dc3d f64c 893e
00000240: a2f2 47be 05d2 febd acfa 0dbe 0103 edbd
00000250: c824 4ebe 4df1 51be 3f49 863e ea89 a0bd
00000260: 5e63 adbd eedc febb c19a 15be ea68 77bd
00000270: 5262 52be dc85 1fbc 20db 13be 1840 2d3d
00000280: 6a11 7ebe ecef 35be a6b8 a53e d5cc dbbd
00000290: 8185 8bbe 0b6c 253e 1f15 3ebe 83e5 42bd
000002a0: 2280 51be e68c babd cf50 8b3e eaa6 76be
000002b0: d26e 16be 5e09 56be 0142 4e3e 0e1e 85be
000002c0: ce23 fdbd 9675 f2ba 35fa 0abd ad38 2c3e
000002d0: d5a8 443e 6388 86bd ac63 36be 4e91 73be
000002e0: 7745 cebd a82a 0abe 4623 99bd 4f24 6cbe
000002f0: 7403 57be a2ee 333e cac4 8b3e b25a 6dbe
00000300: f06d b63d fd68 e53d b340 33be 55df 563e
00000310: 2fcc 803e cdd3 1a3e ed69 20be 9058 1e3e
00000320: 78e2 f63d 4a95 673e e386 d7bd ccdf 1ebe
00000330: db73 f83d 94db 223e c124 9abe a3b9 90be
00000340: 5caf 8d3d e630 ac3d 84bd ff3c 99e7 a43c
00000350: 7888 583e fdb8 613e 3f17 23be a7e5 133e
00000360: 0c01 303e 9734 fd3c 89ca 783e 1479 a93d
00000370: 7a04 5a3e 3d4e 603e d972 003d 1697 8ebe
00000380: 6daa 0e3e a4fe d53d 404f 34be a102 c93d
00000390: c3b3 1a3e 86dd 38be 8f95 6e3e d6ca f53d
000003a0: 6df4 533e 4a46 f139 cd9d 91be f5d6 293e
000003b0: 40ac 523e 7453 313e 97e9 47be 591d 3d3e
000003c0: e128 4b3d 1a95 933d d69b fa3c 5de7 7ebe
000003d0: bd46 42be cdcc 1a3e a87b 423e d7ad 42bb
000003e0: c72e ae3d 0024 513e e6da 0a3e 1b7c 5c3e
000003f0: 4f26 643e a37f 50be d2dd 85be 3da8 1d3c
-0.2672145 -0.08614302 0.28597373 -0.08382412 -0.05964219 -0.100396425 0.13436802 -0.24682829
-0.1232213 -0.16535538 0.18324822 0.12299275 -0.20549938 -0.19177713 0.23725793 0.2736207
-0.07600564 -0.108273275 -0.034306265 -0.01639475 -0.13622034 -0.21240929 0.11557911 -0.061621193
-0.081428245 -0.22814256 -0.2156875 -0.08501877 -0.1563562 -0.05748161 -0.16907926 0.29129437
-0.19989316 -0.16576277 0.20555183 -0.030051362 -0.10863247 0.2959298 -0.19909017 -0.09240013
-0.24180308 -0.07701982 0.2923142 -0.13678704 -0.27824667 -0.25487196 0.06930553 -0.1486559
-0.17959477 -0.16844994 -0.09832702 0.09494751 0.16776386 -0.21356401 -0.03180268 -0.18917933
-0.024013888 -0.21256734 -0.18002172 -0.30151838 -0.21427661 0.06582654 0.25307697 -0.058695134
-0.16971031 -0.25879097 0.12629646 -0.26463008 -0.109030485 -0.24533173 0.20441954 -0.049380824
-0.21178037 -0.24389967 0.33555728 0.20059532 -0.19304942 -0.31551242 0.22479516 0.33460376
-0.14535365 -0.24626388 -0.18590961 -0.06698997 -0.26833686 -0.10830549 0.2712689 -0.25387853
-0.12786776 -0.20162298 -0.183656 -0.030566504 -0.1474782 -0.22777505 -0.055488564 0.32903367
-0.08651777 -0.05974015 0.25936496 -0.09234178 -0.29246917 0.3447244 -0.07303478 -0.09448765
-0.24022809 -0.023112973 0.28229398 -0.027926708 -0.2636157 -0.22004779 0.20567368 -0.13970736
-0.06588129 -0.19716147 -0.1939713 0.2769217 0.24778885 -0.24780299 -0.23534517 -0.10683566
-0.22914083 -0.1846239 -0.16059577 -0.25452775 -0.0821857 0.25293377 0.30300546 -0.253066
-0.17283611 -0.18528807 0.12101224 -0.062573336 -0.076381996 -0.23035765 0.20954496 -0.06957951
-0.108286135 -0.25139233 0.20928834 0.1187548 -0.22522986 -0.14976755 0.10745593 0.2681653
-0.19526151 -0.12442402 -0.13865155 -0.115728386 -0.20131218 -0.20502205 0.26227757 -0.07838805
-0.084662184 -0.0077778017 -0.14609815 -0.06040279 -0.20545319 -0.009736504 -0.14439058 0.042297453
-0.2481133 -0.17767304 0.32367438 -0.10732428 -0.27250293 0.16154496 -0.18562745 -0.04758216
-0.20459035 -0.091089055 0.2721009 -0.2408711 -0.14690712 -0.20902011 0.20142366 -0.25999492
-0.12360345 -0.0018498178 -0.033930022 0.16818495 0.1920503 -0.065689825 -0.1781146 -0.23785898
-0.10071843 -0.13492835 -0.07477431 -0.23060726 -0.20997411 0.175715 0.27298576 -0.23179129
0.08907688 0.112016656 -0.1750515 0.20983632 0.2515578 0.15119858 -0.15665407 0.15463471
0.12054914 0.22615543 -0.105237745 -0.15515059 0.12131473 0.15904075 -0.30106166 -0.2826663
0.06918213 0.08407764 0.031218298 0.020129966 0.21145809 0.22043224 -0.15926836 0.14443074
0.171879 0.030908866 0.24296011 0.08275047 0.2129077 0.21904846 0.031359527 -0.27849644
0.139322 0.104489595 -0.17608356 0.098149545 0.15107636 -0.18053254 0.2329924 0.120015785
0.2069871 0.00046019471 -0.28440705 0.16585906 0.2057352 0.17316991 -0.19522701 0.18468226
0.049599532 0.07206173 0.030591886 -0.24892946 -0.18972297 0.15117188 0.18992484 -0.0029705667
0.08505016 0.20423889 0.13560066 0.21531717 0.22280239 -0.2036119 -0.26145798 0.009622631

fc2.bias f4 [32]
00000000: c065 273c 3b50 63bd 651c b53d 4e07 063d
00000010: 4df6 2cbd f6e5 fbbd a26c a33d 8928 d0bd
00000020: 15e0 8e3c 7333 b13d a367 083c cb4e f7bc
00000030: 6525 c3bc 4973 cbbd f8a4 36bd 8aaa 0f3d
00000040: 5e01 9fbd 8330 8cbd 9823 70bd e565 07be
00000050: abe9 ac3d cb7f 5a3d b0d1 46bd 40ab 7ebd
00000060: 71a6 a43d 680c 67bd 0c7e 8a3d af06 f53d
00000070: 4186 07bd 4ff1 9b3d 52bf 0a3d f830 493c
0.01021713 -0.055496436 0.088433065 0.03272181 -0.04222708 -0.12299721 0.079797044 -0.101639815
0.017440835 0.08652391 0.00832549 -0.030188939 -0.023821542 -0.09934098 -0.04459092 0.035074748
-0.07763933 -0.068451904 -0.058627695 -0.13222463 0.08443006 0.05334453 -0.048539817 -0.062175035
0.08039559 -0.056408316 0.06762323 0.119641654 -0.03308702 0.07614385 0.033873864 0.0122797415

fc3.weight f4 [2, 32]
00000000: 7594 aa3d e1e5 973e 7c1f 823e 9672 8dbe
00000010: cd41 e53d 2dc3 923e 1c79 2c3e 35f7 a2be
00000020: 71a2 45be 6dc1 ea3d 89a5 24be fa4f 90be
00000030: bb9f cd3d fd38 773e 5535 4f3e 4ddd 6fbe
00000040: 8431 b9bd 255c 803e 1e83 c93d f4e3 303e
00000050: 22c4 52be e7ba 953e 3236 943c bcef 94be
00000060: 2b2f 023e 97b2 8f3e 5f40 21be 6a15 93be
00000070: 5a5b 0d3e 4eba 6ebe 5f73 aabe 0c65 b73d
00000080: 6dee 9cbe 7748 94ba ffda 26be 1583 8d3e
00000090: 0008 8dbe 0d23 efbb 8fea 70be 6674 9d3e
000000a0: 46f1 8b3e ac5b 3bbe c0c4 943e cf00 9b3e
000000b0: 9fc0 80be 63e1 75be 9c1e 5fbe 8905 2d3e
000000c0: 8253 9e3e e0f4 16be 53ef 45be 93bf 0abe
000000d0: ee4a 1f3e f6c3 57be 960c 9abe 005b 713e
000000e0: b905 94be 3675 8bbd b7a3 973e ea8c 1d3c
000000f0: 6310 5abe b04c c93d 8b73 883d 8310 85be
0.08329097 0.2966757 0.25414646 -0.27626485 0.11194191 0.28664532 0.16843075 -0.3182923
-0.19300248 0.11462674 -0.16078772 -0.28186017 0.10040232 0.24142833 0.20235188 -0.23424263
-0.090426475 0.250703 0.09839462 0.17274457 -0.20582631 0.29244158 0.018092249 -0.29089153
0.12713306 0.2806594 -0.15747212 -0.28727275 0.13804379 -0.23313257 -0.33291146 0.0895482
-0.30650654 -0.00113131 -0.16294478 0.2763907 -0.27545166 -0.0072978796 -0.23526977 0.30752867
0.27332515 -0.18296689 0.29056358 0.30274054 -0.25146958 -0.2401176 -0.2178902 0.16896643
0.30923086 -0.1474185 -0.19329576 -0.13549642 0.15555927 -0.21070847 -0.30087727 0.2356987
-0.28910616 -0.068094656 0.29617092 0.009616116 -0.21295314 0.0982908 0.06662663 -0.2598916

fc3.bias f4 [2]
00000000: d98e 553c 23ca 993c
0.013034546 0.018773144
