result/model2/trained_model2.pth (torch, 520015 bytes, 6 tensors)

fc1.weight f4 [64, 1988]
00000000: bc86 ba3c 6db4 f43c ea2f 933c 8ced e03c
00000010: 58aa fc3c be44 4abc 4d30 93bd b6e3 3cbd
00000020: 2c06 343d bb77 66bc 162e 6ebd e3c8 a9bb
00000030: 2ee9 c6bc 05d8 253d 58c7 0abc c8ff fb3b
00000040: d4c3 d0bc 9649 24bd db92 1dbd 631c fbbc
00000050: 9d6c 9dbc 1d0b 64bd b9ff 4bbd 4ef8 fabb
00000060: 7a2b 343d 09f9 97bd 4937 f4bc 3bda 7abd
00000070: acf7 983c 4cc4 6bbc 3afc 1e3d 894e d2bc
00000080: 1f4e c6bb d665 38bb 4c6a 87bc 760c 35bd
00000090: 5802 03bc c58e 653c 2c10 eb3c 9ef4 de3c
000000a0: 1470 693c 8b4b f1bc 2020 563c ca84 893d
000000b0: 7666 39bb d0b8 1c3d b240 94bc 1d56 163d
000000c0: caac 44bd 5904 9d3c 07cd 5c3d 9946 053d
000000d0: caf0 bb3c d208 2c3c df93 39bb 1f6b cf3c
000000e0: 7148 39bc 1251 773c 0a90 dd3c 176d 8f3b
000000f0: 3a59 583d c52c 3b3d d292 9dbc e42d ac3c
00000100: 3286 fabc 4973 e23b 96ee e0bc f1f9 4ebd
00000110: 3661 bebc 1cf0 66bd b45f 143c e402 873b
00000120: e87c 59bd 13fd bbbc d846 c53c 68f3 1dbd
00000130: 6929 153b 1747 363c 2577 11bd ef73 61bd
00000140: 8803 03bd a0ac 00bd b16f 603d 181a 783d
00000150: 72b9 ce3a 5c0e 723b f0eb 2bbc 0cfd 01bc
00000160: 6c90 80bd e0fa 59bd 5c73 69bb fe5c f9ba
00000170: c895 f6bb 8284 2c3b de86 f63c 5587 deba
00000180: 01ac a03d f927 3bbd 6089 ba3c bc02 343d
00000190: 777c 513c a7c6 2a3c 503e 243d 2988 d03c
000001a0: dbc5 8b3c 3660 29bd 7551 f6ba d21f 043d
000001b0: 260c 44bd bc63 9d3b 8a98 a13c 7cdf 04bc
000001c0: ab3f bc3c d532 86bd 1fe1 3f3d cdd7 d63c
000001d0: 25cf 9bbd b9d1 ad3c 28b4 433d 317f 48bc
000001e0: 0486 013b fffd 823d 2086 233d 7095 54bd
000001f0: b0d5 343d 08cc 2b3c 8c78 85ba 4cb6 7a3c
00000200: 57de 20bd 6f75 9d3c 938e 683c 1775 1ebd
00000210: 5363 27bd d63d 40bd 1703 74bd c72f faba
00000220: bad0 8dbd b8e5 043c 145b 033d 0ce2 4bbd
00000230: 271a b83a d15d d63a 161b 233d 6ac9 e3bb
00000240: 93fb c23a 2570 633b 28de 0c3c ebf6 85bc
00000250: 1c35 363d 0b72 363d 326a f73c 9ad0 9a3c
00000260: 6def f4ba c88d 973c 9735 26bd 8ef0 babb
00000270: 517c a3bd 1911 873c 3154 9b3c d87d 0b3d
00000280: e398 88bd cd12 8a3b eee8 69bd 379e a7bd
00000290: f02d d0bc a63d b1b9 3d5d 43bc d32e 25bb
000002a0: edaf 02bc 658f 973c 55b0 2cbd c028 633d
000002b0: 2523 43bd 459d 3abd 00ea 50bd 333e 3ebd
000002c0: 656c 6ebc 3809 81bd 7673 833c 193f 50bd
000002d0: f861 213d e1a9 e2bb 6511 1c3d 9941 9cbb
000002e0: 093b dc3b 3c85 8bbc 7376 db3c 868e c13a
000002f0: 51df 8b3c 5a09 9f3b bdbe 0cbb 21f4 e1bb
00000300: ba2b d13c 75e9 d43b 0f84 5dbe 1dc1 ffbd
00000310: 56f9 15bd a961 bcbd 8e1b 90bb be70 1cbb
00000320: f937 b53c ae73 243d d142 5bbb 664b 00bd
00000330: 15b1 58bc 5cf1 aa3c 303e f4bc 28bf e0bc
00000340: 63cf 413c 4d1c 103d ef18 cbb9 d35c 57bd
00000350: 4f4f a0bd 3ef0 bd3c e285 9ebb 1219 303d
00000360: 29db e9bc 7b16 96bb 2c8b a9bb e2bf be3b
00000370: 8339 b83a daf5 20bd f17e 7abd a654 a2bd
00000380: 0144 773c 99d2 5dbd cc9d 2ebd 5b77 87bc
00000390: ad17 283c 4f5a c6bc d604 93bd 0fed 07bd
000003a0: 1aae cd3c 9a9f 103d 2908 c4bb fd37 753c
000003b0: 85e3 ab3c 789c 43bc a44b a3bd 5edd 6c3c
000003c0: 3d38 45bd 82f7 7bbd 9be4 f13c 668e 8cbd
000003d0: 1f3c 67bb 778f f63a 9bd7 273d 10f9 203b
000003e0: 08fc f53c 1e86 ca3c 9063 0a3d 08f6 ed3c
000003f0: a4e9 933c 314b 313d 21be 823c 37ee 8cbd
0.022769324 0.02987119 0.017967183 0.027457021 0.030842945 -0.012345491 -0.07186947 -0.0461156
0.0439512 -0.014066632 -0.05814942 -0.0051814183 -0.02428111 0.040489215 -0.008470379 0.0076904036
-0.025484003 -0.04010924 -0.03847013 -0.030653184 -0.01921683 -0.05567466 -0.049804423 -0.0076589948
0.043986775 -0.074205466 -0.029811518 -0.061243277 0.018672787 -0.014390063 0.03881476 -0.025672214
-0.006051793 -0.002813687 -0.016530178 -0.044201337 -0.007996164 0.01401109 0.028694235 0.027216252
0.014247913 -0.029454967 0.013069183 0.06714781 -0.0028289831 0.03826219 -0.018097255 0.036703218
-0.048016347 0.019167112 0.053906467 0.03253803 0.022941966 0.01050015 -0.0028316898 0.025319634
-0.011308775 0.015095012 0.027046222 0.004377018 0.052819468 0.045696992 -0.019235048 0.021017976
-0.030581567 0.0069107157 -0.027457517 -0.05053133 -0.023239713 -0.05638133 0.0090560205 0.0041202176
-0.053097636 -0.022947824 0.024081632 -0.03856221 0.0022760278 0.011125348 -0.035514016 -0.055042204
-0.03198579 -0.031414628 0.054794017 0.06057176 0.001577182 0.0036934828 -0.010493264 -0.007933866
-0.06277546 -0.05321777 -0.0035621738 -0.0019024906 -0.0075251795 0.0026324098 0.030093607 -0.0016977588
0.07845307 -0.045692418 0.022770584 0.04394792 0.012786022 0.010423339 0.04009849 0.025455551
0.017062118 -0.04135152 -0.0018792587 0.03225691 -0.04786315 0.004803149 0.019726057 -0.008109923
0.022979578 -0.06552664 0.04684555 0.026225949 -0.07607869 0.021218168 0.047779232 -0.012237356
0.0019763717 0.06396102 0.039922833 -0.051900327 0.0441491 0.010485657 -0.001018302 0.015302252
-0.03927454 0.019221036 0.014194149 -0.038685884 -0.040866207 -0.04693397 -0.05957326 -0.0019087725
-0.06924577 0.00811141 0.03206928 -0.049776122 0.001404588 0.0016354864 0.039820753 -0.0069515007
0.0014876 0.0034704295 0.008597888 -0.016353091 0.044484243 0.044542354 0.030202005 0.018898297
-0.0018687077 0.018500224 -0.04057845 -0.005704946 -0.07982696 0.016487645 0.018961044 0.03405556
-0.06669786 0.004213667 -0.057106905 -0.08184474 -0.02541253 -0.00033806002 -0.011924085 -0.0025204911
-0.007976514 0.018500993 -0.04216035 0.055458784 -0.04764094 -0.04556014 -0.05100441 -0.046446037
-0.01455221 -0.063005865 0.016046267 -0.050841425 0.03940007 -0.006917224 0.038102526 -0.004768562
0.0067209047 -0.017031305 0.02678988 0.0014767207 0.017074259 0.0048534097 -0.0021475994 -0.0068955575
0.025533546 0.006497557 -0.21632408 -0.12488005 -0.03661474 -0.09198315 -0.004397816 -0.002387091
0.022121416 0.040149383 -0.0033456574 -0.031321906 -0.013225813 0.020867042 -0.02981481 -0.0274349
0.01182923 0.03518324 -0.00038737754 -0.05257876 -0.07827627 0.023185845 -0.0048377374 0.04299266
-0.028546887 -0.0045803166 -0.0051740613 0.005821214 0.0014055226 -0.039296962 -0.061156217 -0.07926302
0.015091897 -0.05415592 -0.042630956 -0.016536405 0.010259551 -0.024212984 -0.07178657 -0.03318506
0.025107432 0.035308458 -0.005982418 0.014966962 0.020982513 -0.0119391605 -0.07973412 0.014457075
-0.048149336 -0.06151534 0.029527953 -0.06863098 -0.0035283638 0.0018811066 0.0409771 0.0024562515
0.030027404 0.024722155 0.033786356 0.02904798 0.018055744 0.0432846 0.015959801 -0.068813734

fc1.bias f4 [64]
00000000: 5791 c93d 956d cd3c fb47 fa3c c214 dd3c
00000010: 8715 cc3c 0774 c03c 4628 8e3c 0b2f d73c
00000020: ff99 c73d b031 c83c a37d bf3d 835a 063d
00000030: ed95 163d ebaf ab3c 8a92 a93c b213 c33c
00000040: 7d6b a53c 7f68 d03d 25f3 933c d293 b03c
00000050: 0f27 ab3c 9bc9 fb3c 3e67 ab3c e760 cc3c
00000060: ec4d cf3c 6703 b83d 16bf c53d 6f6e f23c
00000070: b52c c33c f8dc e43d 3e20 ad3c 9a5c 113d
00000080: de9b b63d 5bbb d73c 19ab b33d 3727 e43d
00000090: 4d32 bc3d f2d8 c53d 26f0 a33c 3a93 df3c
000000a0: d236 ee3c d831 c83c cfb9 de3c 55ef ad3c
000000b0: 8924 c73c 3e3a d33c 303e bd3d 0935 b03c
000000c0: 5243 a63c 7b13 ac3d 57a0 b23d d25b e13c
000000d0: 43aa 1b3d 02c1 fa3c bffc 053d 5e70 d93d
000000e0: f5a1 0f3d 2d50 263d 365e de3d ef17 bb3c
000000f0: d36c 283d 7b3f d83c 7bd4 943c 9a8a be3c
0.098421745 0.025076667 0.030551901 0.026987437 0.024912609 0.023492826 0.017353188 0.026267549
0.09746169 0.024437755 0.09350135 0.032801162 0.036764074 0.020957908 0.020699758 0.023813102
0.020192856 0.10176181 0.018060276 0.021554861 0.020892648 0.030735781 0.020923253 0.02494855
0.02530571 0.08985024 0.096555874 0.029593674 0.023825029 0.11174959 0.021133538 0.035488702
0.08916448 0.026334455 0.08772869 0.11140292 0.091892816 0.0966052 0.020011973 0.027291883
0.029078875 0.02443783 0.02718821 0.021232286 0.024309414 0.025784608 0.09240377 0.021509664
0.020295773 0.08402153 0.08721989 0.027509604 0.03800417 0.030609611 0.03271174 0.106171355
0.035066564 0.040603805 0.10857813 0.02283856 0.041119408 0.026397457 0.018167725 0.02325945

fc2.weight f4 [32, 64]
00000000: 10f4 38be bb8d 813e b67b 903d 9cf7 f13d
00000010: f38c ff3d aa82 9e3d 593b 6f3e f937 c83c
00000020: fa6a 51be 5ab0 653e dab1 a4be 514e 103e
00000030: 1425 9d3d d1ad 123e fe71 143e b592 0d3d
00000040: 8f01 213e 6a5d 93be 895f 153d 3d6f 223e
00000050: 4b41 643e fc6c f03d cca8 3d3e 9217 833e
00000060: 723d fe3d e990 26be 0f14 81be d5f9 603e
00000070: e0a5 493e d62d 49be d669 8f3d 20c9 713e
00000080: 417c 97bd 58b9 083e 965b 52be 8b12 babd
00000090: beda 63be d308 7abe d7b9 543d 0366 5b3e
000000a0: 16fe 543b 9af4 363e f21f 7c3e 6a35 033e
000000b0: dbf4 793e d8d7 3d3e 82c2 2fbe 1f92 d03d
000000c0: fe78 733e 4bbb b0bd b19b 19be 98c8 1f3e
000000d0: 2c6d c5bb 0207 513e 5b26 7e3e 50b9 50be
000000e0: 7624 b53b 8e6c 233d dfc0 53be c670 2c3e
000000f0: 1076 3c3e 07dd 353e a05c 1b3e 696c 4b3d
00000100: 671c 7a3e 8885 3cbe a44a b1bd 4998 22be
00000110: 4a4e babd 0cef 20be 4540 5dbe 89dd 58bd
00000120: 4629 863e 7632 cabd e3f0 c23d 490a 79be
00000130: ca5c 0dbe 8bb0 9dbd b12c 37be 0f9b 35be
00000140: e4f2 14bd fa6a 973e fb07 b2bd a052 2ebe
00000150: b215 39be 92bd a3bd 5457 82be 7285 83bd
00000160: 1f7d 23be 05ea 6e3e 8e13 8e3e 13fd 7fbe
00000170: 63ff a6bc bb48 a23e 6a04 56bd 94ad a2bd
00000180: bffe 923e ace0 87be 453c 3f3e 4e9e 2d3e
00000190: 3457 2b3e f837 2f3e ff1c f4bd eff5 adbd
000001a0: 24ef 31be bd05 8fbd 420b 33be a98c 4abe
000001b0: f330 97bd 79e2 02bd 8305 813e 04cd 37be
000001c0: 94b1 62be 72a4 fe3d 30fd 1e3e 6fc0 86be
000001d0: 2ffd 82bc 18f6 29be a4dd 94be 7f7b 9c3e
000001e0: 5d7d 67be 5285 16be 5c0d 653e ddd7 4ebd
000001f0: b806 21be f065 04bd 5711 ecbd bb30 17be
00000200: 5a33 923e 1df2 ecbc e025 66be ae11 efbd
00000210: c95e 6dbe 0b2c 80be 804d 26bd 0c48 5fbd
00000220: 312e 053e 8484 05bd fcc8 993e 8b2f 74be
00000230: a659 39be 4135 41be 4fcd 96bd 47b0 7dbd
00000240: c806 a7bd c0f1 a13e 4166 11be c1fe 86be
00000250: cae0 33be d574 65bc cd87 61be bae3 67be
00000260: 29fa 7dbe 2f86 2e3e d01b 8e3e c493 9ebe
00000270: 556b 0ebe c282 8a3e 1a9e 84be 5495 40be
00000280: b521 113e 0ae9 84be c296 dc3d fdc1 793d
00000290: c8b7 a83d 0eb9 943e ee53 b6bd 2ca7 4dbe
000002a0: f3d8 59be bb1a b9bc 2076 50be ce38 fabd
000002b0: dbc9 bcbd b79b 2bbe beeb a53e db78 c1bd
000002c0: fab2 27be 9e1f 983e bd1c 353e 710c 64be
000002d0: bb55 03be 67cb 12bd 15eb 2bbe e24d 883e
000002e0: 3c77 8a38 4aad c1ba 9683 883e 4b24 08be
000002f0: c13a f4bd 408c 1abd 8339 45bd 5c2d 60be
00000300: 895b 5dbe 76ff 333e 0995 003e e27a 613e
00000310: 4ce3 713e 578f 233e 4002 6c3e 34ad 413e
00000320: 646b 83be b71b f83d 575b 0ebe d9af 083e
00000330: 71c2 3f3e d682 603e 1de9 e33d 11a7 1a3e
00000340: c656 833e aadf 9dbe 2d45 463d 0aeb 0d3e
00000350: e413 bc3d d82e fc3d 7abf 7d3e ac88 093e
00000360: 57ee 5f3d 5a4b 6abe ebae 80be e08b b23d
00000370: fbdd 743e a2c3 88be 5ef6 4e3e 2b7b 3b3e
00000380: 1d0b 97be 7011 f23d 28c0 60be 66c0 b1bd
00000390: 9638 85be 1af2 66be d61d 1c3d d49b 7dbb
000003a0: 7daa 8b3d 2ea3 d43d aeaf 293e 0406 f73d
000003b0: e450 f63c 42a7 5e3e d9cd 32be 50f1 ca3d
000003c0: f220 763d 6d3c 71bd 3aa7 4cbe 54b6 143e
000003d0: 537d 1a3e 3bf6 3d3e d820 483d 6187 c9bd
000003e0: a718 ac3d bbe7 f23c d255 eabd b178 e23d
000003f0: 1780 d83c f6df bd3d 4e77 243e 5ed1 703e
-0.18061852 0.25303444 0.07054846 0.11814806 0.12478056 0.07739766 0.23362483 0.024440752
-0.20450965 0.22430554 -0.3216694 0.14092375 0.07673088 0.14324118 0.1449661 0.03456374
0.15723251 -0.28782207 0.036468063 0.15862747 0.22290532 0.11739537 0.18521422 0.2560392
0.124140635 -0.16266216 -0.25210616 0.21970303 0.19692183 -0.19646391 0.070026085 0.2361188
-0.073967464 0.13351953 -0.2054275 -0.09085568 -0.22251412 -0.24417429 0.051935043 0.21425633
0.003250008 0.17866746 0.24621561 0.12813345 0.24409811 0.18539369 -0.17164043 0.101841204
0.23776624 -0.08629473 -0.15000798 0.15603864 -0.006024977 0.2041283 0.24819319 -0.20383191
0.005528028 0.039898448 -0.20679043 0.16839895 0.18404412 0.17760096 0.15172052 0.049663935
0.24424897 -0.18410313 -0.08656815 -0.15878405 -0.09096964 -0.15716189 -0.21606548 -0.052945647
0.26203364 -0.09872906 0.09518602 -0.2432033 -0.13804927 -0.076996885 -0.17888142 -0.17734931
-0.03636445 0.29573804 -0.086929284 -0.17023706 -0.18074682 -0.07995142 -0.2545725 -0.06421937
-0.15965699 0.23331459 0.27749294 -0.24998884 -0.02038545 0.31696114 -0.052250303 -0.07943264
0.2870998 -0.265386 0.18675335 0.1695492 0.16732484 0.17111194 -0.11919593 -0.08494174
-0.17376381 -0.06983516 -0.17484763 -0.1978022 -0.07382383 -0.031954262 0.25199518 -0.17949301
-0.22138053 0.12433709 0.15526271 -0.2631869 -0.015989868 -0.16597784 -0.29075348 0.3056297
-0.22606416 -0.14699295 0.22368377 -0.050498832 -0.15725219 -0.032323778 -0.11526745 -0.14764683
0.28554803 -0.028924042 -0.22475386 -0.11673294 -0.23180689 -0.25033602 -0.040601254 -0.05451207
0.13005902 -0.03259708 0.3003615 -0.23846261 -0.18100604 -0.18867971 -0.07363378 -0.06193569
-0.0815559 0.31629753 -0.14199163 -0.26366237 -0.17566219 -0.014004906 -0.2202446 -0.22645465
-0.2480246 0.17043374 0.27755594 -0.3097211 -0.13908131 0.27052885 -0.25901872 -0.18806964
0.14173014 -0.25959045 0.10770942 0.060976017 0.082381785 0.29047436 -0.08902727 -0.20083302
-0.21274166 -0.022595754 -0.20357561 -0.12217866 -0.092181884 -0.16758619 0.3240642 -0.094468795
-0.16376868 0.29711622 0.17686744 -0.22270371 -0.12825672 -0.03583851 -0.16788895 0.2662192
6.602562e-05 -0.0014776376 0.26662892 -0.13295095 -0.11925269 -0.03773141 -0.04815055 -0.21892303
-0.21616949 0.1757792 0.12556852 0.22019532 0.23621863 0.15972649 0.23047733 0.18913728
-0.2566787 0.12114661 -0.13902031 0.1334833 0.18726517 0.2192491 0.11128447 0.15102793
0.2565214 -0.30834705 0.048405815 0.13859192 0.09183481 0.12313622 0.24780074 0.13431042
0.054670658 -0.22880307 -0.25133452 0.08718085 0.23912804 -0.26711756 0.20211169 0.18308704
-0.29500666 0.11819732 -0.21948302 -0.08679275 -0.26019734 -0.22553292 0.03811439 -0.0038697617
0.068196274 0.103826866 0.16570923 0.12061694 0.030067869 0.21743491 -0.17461337 0.09909308
0.060090013 -0.058895517 -0.19985667 0.14522678 0.1508687 0.1855096 0.048859447 -0.098402746
0.084031396 0.029651513 -0.1144215 0.11058176 0.026428265 0.09271233 0.16061136 0.23517367

fc2.bias f4 [32]
00000000: 94f3 ce3d af51 53bc 8c89 9b3b 228b 033e
00000010: cbda 82bd 1607 233e ac14 9f3d 8e55 a6bd
00000020: 8175 9f3c 3250 3cbd b7a1 a6bd 301a 86bc
00000030: c599 b7bc 9409 a33d e91b a33d 4f0b 473d
00000040: cb78 fbbd 564c 5c3d 7ef0 13be bee3 0ebc
00000050: 4c75 223d 88ea 223d cc6c 933d 1d11 9e3d
00000060: 6415 b53d 68f2 aebc 3e18 7b3d f446 d6bd
00000070: 8866 97bd cea4 863c 2423 dabc 4b40 11bd
0.101050526 -0.012897893 0.0047466215 0.12846044 -0.06389388 0.15920672 0.07767615 -0.08121787
0.01946521 -0.045974918 -0.081363134 -0.016369909 -0.02241219 0.07960811 0.07964308 0.04859477
-0.12278899 0.053783737 -0.14447209 -0.00872129 0.039662644 0.039774448 0.07198486 0.07718108
0.088419706 -0.021355823 0.061302416 -0.10462752 -0.07392603 0.016436007 -0.026628084 -0.035461705

fc3.weight f4 [2, 32]
00000000: b4dc 28bd 4867 dc3d 9541 263e 70a8 43be
00000010: f1a2 84be f5b9 63be 0e95 8bbe c558 393e
00000020: 6e1d 8e3d 5550 893e da2d 893e ccdf 5ebe
00000030: 29db a33d 8984 d0bd 1898 37be 6365 e3bc
00000040: 62b1 0bbe f9e2 3d3e 33ea 923e 4355 51bd
00000050: 00eb 2abe 3965 4d3e 790c 813e e0a5 88be
00000060: 3e7c 3f3e 4ba2 e53d e3ed 9abe 6635 41be
00000070: f5f4 74be e071 9e3e e5c1 83be 4397 7b3e
00000080: 56be 973e 4c48 a9be 9932 8dbe edec 6a3e
00000090: 6756 0d3e 1210 97bc b3e3 08bc bcd8 febd
000000a0: 7e78 9abe 1df0 26be 7c45 c8b9 cfe2 323e
000000b0: ef8e 87be b589 4c3e 9ff6 4f3e c5f4 a63e
000000c0: ad6a 3e3e e651 6ebe 15ff 9fbd d024 b23e
000000d0: 9683 923e 6662 1abe 3388 86be c565 b43d
000000e0: eddb fabd 475c 83be 99c5 d13d bc49 823d
000000f0: 8f48 fcbc 0f69 a1be 9d2e 9e3e 4e30 aebe
-0.041226104 0.10761887 0.16235955 -0.19107223 -0.25905564 -0.22238906 -0.27262157 0.18100269
0.06939207 0.268191 0.26792794 -0.21765059 0.08000786 -0.10181529 -0.17929113 -0.027758306
-0.13641885 0.18543614 0.28694305 -0.051106703 -0.16691208 0.20058145 0.25204828 -0.26689053
0.18699738 0.112125956 -0.30259618 -0.18868026 -0.23921569 0.30946255 -0.25733867 0.2456942
0.29637402 -0.3306297 -0.27577665 0.22941943 0.13802491 -0.01844028 -0.008355069 -0.124436826
-0.30170053 -0.16302533 -0.00038198743 0.17469333 -0.26476237 0.19974406 0.20308922 0.3260862
0.18595381 -0.2327343 -0.07812325 0.3479371 0.28616017 -0.15076599 -0.26275787 0.088084735
-0.12248979 -0.2565634 0.10242767 0.0636172 -0.030796317 -0.31525466 0.30894938 -0.3402123

fc3.bias f4 [2]
00000000: 1b66 003e 9a2e 3b3e
0.1253895 0.18279496
