models/MLP_model.pth (torch, 536471 bytes, 6 tensors)

fc1.weight f4 [64, 2054]
0	0x3c0662b0	0.00820224
1	0x3c43f114	0.011959333
2	0xbc9a1c2a	-0.018812258
3	0xbd523009	-0.05131534
4	0x3cbb5808	0.022869125
5	0xbcd518da	-0.026012827
6	0xbaca2fc0	-0.0015425608
7	0x3d23b67c	0.039968953
8	0x3d88c084	0.066773444
9	0xbd62fcda	-0.05541692
10	0x3ba5893f	0.0050517614
11	0x3d1a3cd3	0.037655663
12	0xbd2b9564	-0.041890517
13	0xbbede051	-0.0072594066
14	0x3d41d4d5	0.047322113
15	0x3d12a78a	0.03580431
16	0x3d9ee7f0	0.07759082
17	0x3cf78561	0.030214967
18	0x3cd565b3	0.02604947
19	0x3caf317d	0.021385903
20	0xbcb6850a	-0.022280235
21	0x3cdf36b7	0.02724777
22	0x3c7c6c07	0.015406615
23	0xbca8e247	-0.02061571
24	0xbc0a64b9	-0.008446866
25	0xbd3d9874	-0.04628797
26	0x3cc459cd	0.023968602
27	0x3c747d1e	0.014922408
28	0x3d3b08cd	0.04566269
29	0xbc32ce21	-0.010913403
30	0xbc9e9ba5	-0.019361326
31	0x3ccd83af	0.025087206
32	0xbc6212c0	-0.013798416
33	0x3d910902	0.07081796
34	0xbc03973a	-0.008031661
35	0x3d06ca1b	0.032907587
36	0x3d8e9453	0.06961884
37	0x3d02548d	0.031818915
38	0xbca1d0b7	-0.019752843
39	0xbd1e3579	-0.038625214
40	0x3cdb9883	0.026806122
41	0x3d1c5183	0.038163673
42	0x3d56f948	0.052483827
43	0xbc0438ec	-0.008070212
44	0xbcb795fc	-0.022410385
45	0x3c0289e5	0.007967447
46	0x3d2c11a2	0.042009003
47	0xbda8a7f7	-0.08235162
48	0xbd3e0457	-0.046390858
49	0x3caa576b	0.020793637
50	0x3bf34a74	0.007424647
51	0xbc52f5e0	-0.012876004
52	0xbd23b5d3	-0.039968323
53	0x3db2078c	0.08692846
54	0x3d3ba842	0.04581476
55	0x3c6e051f	0.014527588
56	0xbc5ccb52	-0.01347621
57	0x3d0d7875	0.034538705
58	0xbb8b2c72	-0.0042472417
59	0x3cb7abba	0.022420753
60	0x3c3bb426	0.011456525
61	0x3c6685a4	0.014069948
62	0xbcc0ab1c	-0.023519091
63	0xbbeb43c8	-0.007179711
64	0xbb22147c	-0.0024731448
65	0x3ca19464	0.019724078
66	0x3c81b7e5	0.015834758
67	0x3d087c1e	0.033321492
68	0x3b652022	0.003496178
69	0x3d45d0b7	0.04829475
70	0x3d06970d	0.032858897
71	0x3bfcf41e	0.0077195307
72	0x3db97e51	0.09057296
73	0xbd1112ab	-0.035418194
74	0xbce5a67a	-0.028033484
75	0x3da254f6	0.07926361
76	0x3d320d10	0.04346949
77	0x3c59fab2	0.013304399
78	0x3d5ecb19	0.054392908
79	0x3b75a30b	0.0037481214
80	0xbd41ef42	-0.047347315
81	0x3d34c40f	0.04413229
82	0x3d73d2f6	0.05952736
83	0x3d33670b	0.04379944
84	0xbd934f65	-0.07192878
85	0xbcaae1e2	-0.020859662
86	0xbcfa0aed	-0.030522788
87	0xbbed78be	-0.0072470596
88	0xbdb1f8ad	-0.08690009
89	0x3d58cc6c	0.052929327
90	0x3d760159	0.06005988
91	0xbcbf2138	-0.02333127
92	0x3d2929a6	0.041299485
93	0xbce0f774	-0.027461745
94	0xbd097e2d	-0.033567596
95	0x3ba6abbf	0.0050863917
96	0xbd0ad349	-0.033892903
97	0xbd1dd9ca	-0.038537778
98	0x3d617644	0.055044428
99	0x3d07ead3	0.03318293
100	0x3d406ced	0.04697888
101	0xbc9cdcea	-0.019148309
102	0x3d136611	0.03598601
103	0x3c4c199d	0.012457279
104	0x3daacc0b	0.08339699
105	0x3d9b3e5f	0.07580256
106	0xbd2635bd	-0.040578593
107	0x3c95b3da	0.018274236
108	0x3d3a580a	0.045494117
109	0x3d87abeb	0.066245876
110	0x3ca42f71	0.020042153
111	0x3da8c78a	0.08241184
112	0x3d25f0be	0.040512793
113	0x3d572a7a	0.052530743
114	0x3cfad442	0.03061879
115	0x3c12ab08	0.00895191
116	0x3c7d43fb	0.015458102
117	0x3d8237c6	0.06358294
118	0xbd170e50	-0.036878884
119	0x3dae237a	0.0850286
120	0xbb400056	-0.0029297075
121	0x3d0015cc	0.031270787
122	0xbd59c8f7	-0.05317017
123	0x3d2b5b57	0.041835155
124	0x3d0719c2	0.03298355
125	0xbbb5e20e	-0.0055506295
126	0x3ca0aa31	0.019612404
127	0xbc075d69	-0.008262017
128	0xbd7ba100	-0.06143284
129	0x3d05360c	0.032522246
130	0x3da5c133	0.080934905
131	0x3cd758c7	0.02628745
132	0xbc8308f7	-0.015995486
133	0xbd5d6ae7	-0.05405703
134	0x3d0fa5e6	0.035070322
135	0x3dc7f6d7	0.09763878
136	0x3da43b36	0.08019106
137	0xbbb3eafe	-0.0054906597
138	0x3c446522	0.011987003
139	0x3ceb49af	0.028721659
140	0x3d9bbf1d	0.07604811
141	0x3d8753fe	0.06607817
142	0x3cfe542e	0.031046
143	0x3da0c4f9	0.078500696
144	0xbd1d0f79	-0.038344834
145	0xbca51018	-0.020149276
146	0xbd104460	-0.035221457
147	0x3d0ea31f	0.034823533
148	0x3c865a63	0.016400522
149	0x3c22a17e	0.009926198
150	0x3d156376	0.036471806
151	0xbc5fc480	-0.013657689
152	0xb99b6018	-0.000296355
153	0xbc9e77f9	-0.019344317
154	0x3bd786f7	0.0065773684
155	0xbd19446f	-0.03741878
156	0x3caed97c	0.021343939
157	0xbd8241fc	-0.06360242
158	0xbcddf3d5	-0.027093807
159	0x3d59885e	0.053108566
160	0x3d5f1205	0.054460544
161	0x3c815714	0.015788592
162	0x3d60f7a9	0.054923687
163	0x3ced3fa2	0.028961007
164	0x3dc0582d	0.09391818
165	0xbd8dbfcc	-0.06921348
166	0x3c789adc	0.01517364
167	0x3b8cd8ba	0.0042982968
168	0x3b7c3aa6	0.0038487106
169	0xbcc2d81a	-0.023784686
170	0xbc83b67e	-0.01607823
171	0xbd4be56a	-0.049779333
172	0x3d5536aa	0.052054085
173	0xbd505b8c	-0.050868556
174	0xbc098525	-0.008393561
175	0xbc8a4da3	-0.016882723
176	0x3d24182b	0.04006211
177	0x3d7e1768	0.06203404
178	0x3cd8ee24	0.026480742
179	0x3cebd361	0.028787317
180	0x3cd007a9	0.025394278
181	0x3d86f4c2	0.065896526
182	0x3c422be9	0.011851289
183	0x3d0aa960	0.033852935
184	0x3d039684	0.032125965
185	0x3cd0dc79	0.025495755
186	0xbc4164e4	-0.011803839
187	0xbd0d9f86	-0.03457596
188	0x3ce857db	0.028362205
189	0x3b0ead06	0.002177061
190	0xbaaf2676	-0.0013362903
191	0xba794590	-0.0009508962
192	0xbcb41edc	-0.021987371
193	0xbd242f57	-0.04008421
194	0x3cbb035d	0.022828752
195	0x3d5bd76b	0.053672235
196	0x3d013d27	0.03155246
197	0xbcceb5df	-0.025233207
198	0x3e5436cf	0.20724033
199	0x3e096cb1	0.13420369
200	0x3d8a9e1f	0.067684405
201	0x3d29eb22	0.041484006
202	0x3c49e03b	0.012321527
203	0xbc4f3be4	-0.012648556
204	0xbc505b5b	-0.012717093
205	0x3d04af18	0.032393545
206	0x3d6f1dbb	0.058377963
207	0xbcdf7cf1	-0.027281256
208	0xbd20fa10	-0.03930098
209	0x3da12a06	0.078693435
210	0x3d5236a5	0.051321644
211	0x3dc9a206	0.09845357
212	0xbce33ada	-0.027738024
213	0x3dc7faf6	0.09764664
214	0x3d5ac938	0.053414553
215	0x3cf5b3df	0.029992996
216	0x3cf057cb	0.029338738
217	0xbd654b19	-0.05597982
218	0x3cc10efd	0.023566717
219	0x3c5a88b4	0.013338257
220	0xbca6b103	-0.020348078
221	0x3d489531	0.048970405
222	0x3cc45534	0.02396641
223	0xbc39f8c4	-0.011350814
224	0xbd0c04fa	-0.034184434
225	0xbb71a6d4	-0.003687312
226	0x3d0b83ee	0.034061365
227	0xbc360a68	-0.0111108795
228	0x3c0e3e1d	0.008681801
229	0x3d5334a7	0.051563885
230	0xbc1cfca9	-0.009581723
231	0x3d0d60ad	0.034516025
232	0x3d1daeb5	0.03849669
233	0x3bcf01aa	0.006317337
234	0xbbb51e59	-0.0055272994
235	0x3c97d8ab	0.018535933
236	0xbbb006cc	-0.005371904
237	0x3bfd518f	0.00773067
238	0xbb0a6ca4	-0.0021121884
239	0xbca32191	-0.019913467
240	0xbb958bed	-0.0045637996
241	0x3c40b896	0.011762759
242	0x3ad4f9a4	0.0016248715
243	0xbadb9893	-0.0016753845
244	0x3d0769ae	0.03305977
245	0x3d7b7278	0.061388463
246	0x3dbca95f	0.092119925
247	0x3d67883b	0.056526404
248	0xbcf0d7b7	-0.029399736
249	0x3b2c04df	0.002624802
250	0x3daeda3f	0.08537721
251	0xbcb59864	-0.022167392
252	0x3d760e59	0.060072277
253	0x3ceb9600	0.028758049
254	0x3cd7420c	0.02627661
255	0x3c8d14f4	0.017221905

fc1.bias f4 [64]
0	0x3cdc4bb6	0.02689157
1	0x3c97efba	0.018546928
2	0x3da5b6b0	0.080914855
3	0x3c8e3074	0.017357089
4	0x3c95b45b	0.018274477
5	0x3cdbdf73	0.026839947
6	0x3daa8c59	0.083275504
7	0x3d0ab701	0.033865932
8	0x3d06230d	0.03274827
9	0x3d00239e	0.031283967
10	0x3cb576e4	0.022151418
11	0x3cc50867	0.024051858
12	0x3ce9f498	0.028559014
13	0x3db41dca	0.08794744
14	0x3c9f53a9	0.019449072
15	0x3daf858f	0.08570396
16	0x3d000286	0.031252407
17	0x3dc29726	0.095014855
18	0x3ca51515	0.020151654
19	0x3d01a34f	0.031649884
20	0x3cd22a7d	0.025655026
21	0x3d0a9ff7	0.03384396
22	0x3dab285d	0.08357308
23	0x3dad6ea4	0.08468369
24	0x3dab16fe	0.08353995
25	0x3db93f85	0.090453185
26	0x3c90e8d4	0.017689146
27	0x3d04d010	0.032424986
28	0x3cb617ed	0.022228206
29	0x3da166bc	0.07880923
30	0x3d136a0d	0.03598981
31	0x3daeb6cd	0.0853096
32	0x3c93f0bc	0.018059127
33	0x3c8abc67	0.01693554
34	0x3c8cd8e5	0.017193267
35	0x3cedec03	0.029043203
36	0x3daf7004	0.08566287
37	0x3ca1735c	0.019708328
38	0x3ce1047c	0.027467959
39	0x3dac70f6	0.08419983
40	0x3daed1f3	0.085361384
41	0x3c8a62a8	0.016892746
42	0x3d10dc2f	0.035366233
43	0x3cf49d2b	0.0298601
44	0x3cbe8264	0.023255534
45	0x3c94ed49	0.018179553
46	0x3cc0a20b	0.023514768
47	0x3dacc4b1	0.084359534
48	0x3c90c865	0.01767368
49	0x3db3aa35	0.08772699
50	0x3cc197f4	0.023632027
51	0x3dab453b	0.08362814
52	0x3ce3d063	0.027809327
53	0x3c92f705	0.017940054
54	0x3ca6e438	0.020372495
55	0x3cc6412c	0.024200998
56	0x3d0628a9	0.03275362
57	0x3cea33e5	0.028589198
58	0x3c78745a	0.015164459
59	0x3c9c29b8	0.019062862
60	0x3caf7b5e	0.02142113
61	0x3dbdd374	0.09268847
62	0x3cc6b405	0.024255762
63	0x3c955e5d	0.018233472

fc2.weight f4 [32, 64]
0	0x3def5060	0.11685252
1	0x3e5c18c5	0.21493824
2	0xbe7c8076	-0.24658379
3	0x3d899743	0.06718304
4	0x3e394cce	0.18095705
5	0x3dec493b	0.11537405
6	0xbe024485	-0.1272145
7	0x3e2a1f13	0.16613416
8	0x3dc0c4af	0.094125144
9	0x3b7f035d	0.0038911917
10	0x3d49ebbd	0.049297083
11	0x3e128cf9	0.1431159
12	0x3e59bb79	0.21262921
13	0xbe285aa0	-0.1644082
14	0x3d416bf2	0.047222085
15	0xbddc224d	-0.1074873
16	0x3ddc709b	0.10763665
17	0xbe51678d	-0.20449658
18	0x3d2795a6	0.0409142
19	0x3de1d1d9	0.110263534
20	0x3dc269e6	0.09492855
21	0x3dff1ea6	0.124570176
22	0xbe845be0	-0.25851345
23	0xbe351e1f	-0.17687272
24	0xbe5b691e	-0.21426818
25	0xbdfa4727	-0.122206025
26	0x3dba29af	0.09089982
27	0x3e248197	0.1606506
28	0x3e57578b	0.21029489
29	0xbe0a36c8	-0.1349746
30	0x3db8618c	0.090029806
31	0xbdd0cef6	-0.10195725
32	0x3e32e9a7	0.17471944
33	0x3d862b33	0.06551208
34	0x3e6af236	0.22943959
35	0x3e519ab0	0.20469165
36	0xbe46551e	-0.19368407
37	0x3de4cce9	0.11171896
38	0x3e1f6011	0.1556399
39	0xbda71fc4	-0.08160356
40	0xbe6a243b	-0.22865383
41	0x3e3ef7e8	0.18649256
42	0x3df9eb6c	0.12203106
43	0x3e4baa59	0.19889201
44	0x3e53a2e0	0.206676
45	0x3e600daf	0.2188022
46	0x3d879c3e	0.06621598
47	0xbe8e7b26	-0.2782833
48	0x3dcd5b1e	0.10027145
49	0xbe0b09f2	-0.13578013
50	0x3d8d0555	0.06885783
51	0xbe16676b	-0.14687888
52	0x3e82b68e	0.25529903
53	0x3e77c34a	0.2419559
54	0x3c9c5846	0.01908506
55	0x3e18e171	0.14929749
56	0x3ba05bed	0.004893771
57	0x3e19b72e	0.15011284
58	0x3e3f6411	0.18690516
59	0x3d07e7ea	0.033180155
60	0x3e0f5686	0.1399785
61	0xbe7cff86	-0.2470685
62	0x3cee2b9e	0.029073533
63	0x3e206266	0.15662536
64	0xbde81f13	-0.11334052
65	0xbe3b67ae	-0.1830127
66	0x3e161330	0.14655757
67	0xbe6115d8	-0.21980989
68	0xbe4e2126	-0.20129833
69	0xbe876713	-0.26445827
70	0x3e111cc9	0.14171137
71	0xbe3a33b2	-0.18183783
72	0xbdc80158	-0.09765881
73	0xbe87dc63	-0.2653533
74	0xbe4547bb	-0.19265644
75	0xbe81ed8a	-0.2537654
76	0xbe7c51d0	-0.24640584
77	0x3e96b9cd	0.2943863
78	0xbe7b7923	-0.24557929
79	0x3ead90cd	0.33899537
80	0xbe4a580e	-0.19760153
81	0x3dff3041	0.124603756
82	0xbe014c0c	-0.12626666
83	0xbe3b809b	-0.18310778
84	0xbe1c0076	-0.15234551
85	0xbd07459c	-0.03302537
86	0x3e5994e2	0.212482
87	0x3e9002c2	0.28127104
88	0x3e7106dc	0.23537773
89	0x3e575c14	0.21031219
90	0xbe6a5323	-0.22883277
91	0xbe526764	-0.20547253
92	0xbe945ef2	-0.28978688
93	0x3e9870e7	0.29773638
94	0xbd40f6e2	-0.047110446
95	0x3de06c86	0.10958199
96	0xbdcc0fec	-0.09963974
97	0xbea2c058	-0.31787372
98	0xbe522c1e	-0.20524642
99	0xbe0504ab	-0.12990062
100	0x3e7c53a2	0.24641278
101	0xbdb95650	-0.09049666
102	0xbd96eadd	-0.07369015
103	0x3e8abc3f	0.27096745
104	0x3df3579b	0.11881944
105	0xbe64ff00	-0.223629
106	0xbd828262	-0.06372525
107	0xbe19ba16	-0.15012392
108	0xbe01d425	-0.12678583
109	0xbe136406	-0.14393625
110	0xbe61c3ad	-0.220473
111	0x3ea4eeaf	0.3221335
112	0xbe94222c	-0.2893232
113	0x3e9cba58	0.3061092
114	0xbdd87b61	-0.10570408
115	0x3dd7d7bc	0.10539195
116	0xbe6e297f	-0.23258017
117	0xbdb5fd38	-0.08886188
118	0xbea34adf	-0.3189306
119	0xbe9c6179	-0.30543116
120	0xbe0acaf9	-0.1355399
121	0xbe366b1d	-0.17814298
122	0xbe42ed91	-0.19035937
123	0xbe946199	-0.2898071
124	0xbe1002b3	-0.1406353
125	0x3e2f624d	0.17127343
126	0xbe64e15e	-0.22351596
127	0xbe9ab5b9	-0.30216768
128	0x3e6b1751	0.22958113
129	0x3e2a120d	0.16608448
130	0xbe3fd2b9	-0.18732728
131	0x3e7e277f	0.24819754
132	0x3e422c88	0.189623
133	0x3e073923	0.1320539
134	0xbde810c2	-0.11331321
135	0x3cebfdf9	0.028807627
136	0x3e7b5e96	0.245478
137	0x3e6dfd27	0.23241101
138	0x3e5fad0c	0.21843356
139	0x3e04077c	0.1289348
140	0x3e8738c0	0.26410484
141	0xbe5819dc	-0.21103615
142	0x3e529095	0.20562966
143	0xbe7c8187	-0.24658786
144	0x3e483662	0.19551995
145	0xbe4c597b	-0.19956009
146	0x3e6a9a5a	0.22910443
147	0x3e442cec	0.19157761
148	0x3de5d97c	0.112231225
149	0x3de0087c	0.10939118
150	0xbe83301e	-0.25622648
151	0xbe2a10e2	-0.16608003
152	0xbeb03d2a	-0.34421664
153	0xbe91a546	-0.28446406
154	0x3e402da4	0.1876741
155	0x3e088cf6	0.13335022
156	0x3e502a3a	0.20328608
157	0xbea471e1	-0.32118133
158	0x3e6ff339	0.23432626
159	0xbe05ba1a	-0.13059273
160	0x3e125bf5	0.14292891
161	0x3dda64ad	0.10663734
162	0x3e380bb1	0.1797321
163	0x3e008fa7	0.12554799
164	0xbe8dff59	-0.27733877
165	0x3df942fb	0.12170979
166	0x3ddbcc9a	0.10732384
167	0xbeac6fd8	-0.3367908
168	0xbeb329c3	-0.349928
169	0x3e965977	0.2936513
170	0x3e37fc17	0.17967258
171	0x3e4e127a	0.20124236
172	0x3dbcc154	0.09216562
173	0x3e873082	0.26404196
174	0x3e3fd5cf	0.18733905
175	0xbeb532c5	-0.35390297
176	0x3e382d78	0.17986095
177	0xbe9e55ef	-0.30924937
178	0x3e3d5086	0.18487749
179	0xbde52d0e	-0.11190234
180	0x3ea442cc	0.32082212
181	0x3db16542	0.086618915
182	0x3e3168f1	0.17325188
183	0x3e0506e6	0.12990913
184	0x3d75737e	0.059924595
185	0x3e89f038	0.26941085
186	0x3e9f242e	0.3108229
187	0x3e35b58f	0.1774504
188	0x3e922825	0.28546253
189	0xbe86566f	-0.2623782
190	0x3e0a462a	0.13503328
191	0x3e68dd0a	0.2274057
192	0xbe2a32fd	-0.16621013
193	0xbe2ab054	-0.16668826
194	0x3e8b3ef6	0.27196473
195	0xbe773dc0	-0.2414465
196	0xbdf44d77	-0.11928838
197	0xbe5f4389	-0.21803106
198	0x3e008a0f	0.12552665
199	0xbdd34f62	-0.103178754
200	0xbdc5908e	-0.09646712
201	0xbe37836e	-0.1792123
202	0xbe7dfd9c	-0.24803776
203	0xbd221a52	-0.039575882
204	0xbe76b91e	-0.24094054
205	0x3e0ea03d	0.13928314
206	0xbe91eb4d	-0.28499833
207	0x3eb073fb	0.34463486
208	0xbe2a92f5	-0.16657622
209	0x3e45087a	0.19241515
210	0xbe5e9c89	-0.21739401
211	0xbe14be79	-0.14525785
212	0xbda2578e	-0.07926856
213	0xbd4b8205	-0.049684543
214	0x3e878bb4	0.26473773
215	0x3db0a2c3	0.08624794
216	0x3e5ebade	0.21750972
217	0x3d75b911	0.059990946
218	0xbe8c612f	-0.27417895
219	0xbe500004	-0.20312506
220	0xbdb8aadc	-0.09016964
221	0x3e8e8e71	0.2784305
222	0xbc86e965	-0.016468713
223	0x3e7546b8	0.23952758
224	0xbe48357f	-0.19551657
225	0xbe615d8a	-0.22008339
226	0xbe65208b	-0.22375695
227	0xbe8391da	-0.25697213
228	0x3e614c31	0.22001721
229	0xbe2c4032	-0.16821364
230	0xbe3596e8	-0.17733347
231	0x3eaf2b62	0.34212786
232	0x3ea9a498	0.33133388
233	0xbe20644b	-0.15663259
234	0xbdd70845	-0.10499624
235	0xbe00a62d	-0.12563391
236	0xbe8beacf	-0.27327582
237	0xbe3dfe83	-0.1855412
238	0xbda1bd56	-0.07897441
239	0x3e3ecd3f	0.18632983
240	0xbe25d085	-0.16192825
241	0x3e6b48a0	0.22976923
242	0xbe8a29b3	-0.2698494
243	0x3e97d6a5	0.29655948
244	0xbe8232d0	-0.25429392
245	0xbe4538dc	-0.19259971
246	0xbd8d834b	-0.06909808
247	0xbe3cc04f	-0.18432735
248	0xbd21a393	-0.039462637
249	0xbe41e3d6	-0.18934569
250	0xbe0c3ff2	-0.13696268
251	0xbe96ff89	-0.29491833
252	0xbd967146	-0.07345824
253	0x3e0d18b7	0.13778959
254	0xbe2f56a6	-0.17122898
255	0xbe4965cc	-0.19667739

fc2.bias f4 [32]
0	0x3d94f1d2	0.07272686
1	0x3dc1bfb8	0.094603956
2	0x3d2751b6	0.04084941
3	0x3db84438	0.08997387
4	0xbb985614	-0.004648933
5	0xbd3e1489	-0.046406303
6	0xbce827ff	-0.028339384
7	0x3e091550	0.13387036
8	0x3d5f939b	0.054584127
9	0x3d848ad0	0.06471789
10	0xbdb1a895	-0.086747326
11	0x3da054c0	0.07828665
12	0x3dcbebe0	0.09957099
13	0x3c4e7a38	0.012602381
14	0x3dddba0f	0.108265035
15	0xbe0c3371	-0.13691498
16	0x3c73955c	0.014867153
17	0xbe01698c	-0.12637919
18	0xbde7c8ee	-0.11317621
19	0xbdf477eb	-0.11936935
20	0x3d7a66ba	0.061133124
21	0x3d8c3ce7	0.06847554
22	0xbc916a2b	-0.01775082
23	0x3dfa9646	0.12235694
24	0x3de2fa05	0.11082844
25	0xbdcffc2a	-0.10155518
26	0xbb3b18fa	-0.0028548823
27	0x3a888fa0	0.001041878
28	0xbda57ea7	-0.08080798
29	0xbda2f78c	-0.07957372
30	0xbd9732f1	-0.07382763
31	0xbdb85459	-0.09000463

fc3.weight f4 [2, 32]
0	0xbe5d6c2b	-0.21623294
1	0x3e1b20f3	0.15149288
2	0xbe3ba3ac	-0.18324155
3	0x3e735797	0.23763882
4	0xbe6caa0b	-0.23111741
5	0xbe79ac1f	-0.24382065
6	0xbea19f26	-0.31566733
7	0xbe7d71d0	-0.24750447
8	0x3e7efb86	0.24900636
9	0xbe9c48b4	-0.30524218
10	0xbe7a3fb2	-0.2443836
11	0xbe4391f3	-0.19098644
12	0x3e71e131	0.2362106
13	0xbe16629c	-0.14686054
14	0x3e9b5251	0.3033624
15	0x3e8f179a	0.27947694
16	0xbb6f8080	-0.0036545098
17	0xbdc3ce3b	-0.0956082
18	0x3e567925	0.2094465
19	0x3e1e0aba	0.1543378
20	0xbe2a6e04	-0.1664353
21	0xbe8dafb6	-0.2767312
22	0x3e3b4ab4	0.18290216
23	0x3e49d030	0.19708323
24	0xbe368539	-0.17824258
25	0x3e8db5cf	0.2767777
26	0xbe0f2beb	-0.13981597
27	0x3e526401	0.20545961
28	0x3e592ad4	0.21207744
29	0xbe09e466	-0.13466033
30	0x3e8b8a71	0.2725406
31	0x3e2be66f	0.16787122
32	0x3ea45983	0.32099542
33	0xbe57eb82	-0.21085933
34	0x3e14fabd	0.14548774
35	0xbe17fada	-0.14841786
36	0x3e968b22	0.29403025
37	0x3e39fb75	0.1816233
38	0x3e7329b2	0.23746374
39	0x3e1df15b	0.15424101
40	0xbe81b613	-0.25334224
41	0x3e5c5c1f	0.21519516
42	0x3e5da82d	0.21646185
43	0x3e446aa9	0.19181313
44	0xbe8a0e07	-0.26963827
45	0x3e9caf1b	0.30602345
46	0xbdc06fbb	-0.09396311
47	0xbe33443c	-0.17506498
48	0x3e9214e6	0.2853157
49	0x3e88b286	0.26698703
50	0xbe1ddbd8	-0.15415895
51	0xbe8ad3e9	-0.271148
52	0x3e233442	0.15937904
53	0x3ea263ee	0.31716865
54	0xbeab3950	-0.33442163
55	0xbdc6f0bc	-0.09713885
56	0x3e1b7ae6	0.15183601
57	0xbe832d34	-0.25620425
58	0x3e9f97f2	0.31170613
59	0xbe7f84af	-0.24952959
60	0xbde5a019	-0.11212177
61	0x3e9a3d14	0.30124724
62	0xbe2ce2b1	-0.16883351
63	0xbe16e169	-0.14734425

fc3.bias f4 [2]
0	0xbccbdf10	-0.024886638
1	0x3d5867b4	0.052833274
